CV Splits for this dataset are cached. Loading from file.
CV Index: 0
Train-test Split 1/5
c.exp_n_runs = 1. Stopping at 1 splits.
Building NPT.
Using feature type embedding (unique embedding for categorical and numerical features).
Using feature index embedding (unique embedding for each column).
Clipping gradients to value 1.0.
Model has 6557703968 parameters,batch size -1.
Initialized "lookahead_lamb" optimizer.
NPTModel(
  (enc): Sequential(
    (0): ReshapeToFlat()
    (1): MHSA(
      (mab): MAB(
        (fc_q): Linear(in_features=7936, out_features=7936, bias=True)
        (fc_k): Linear(in_features=7936, out_features=7936, bias=True)
        (fc_v): Linear(in_features=7936, out_features=7936, bias=True)
        (fc_mix_heads): Linear(in_features=7936, out_features=7936, bias=True)
        (fc_res): Linear(in_features=7936, out_features=7936, bias=True)
        (ln0): LayerNorm((7936,), eps=1e-12, elementwise_affine=True)
        (ln1): LayerNorm((7936,), eps=1e-12, elementwise_affine=True)
        (hidden_dropout): Dropout(p=0.1, inplace=False)
        (att_scores_dropout): Dropout(p=0.1, inplace=False)
        (rff): Sequential(
          (0): Linear(in_features=7936, out_features=31744, bias=True)
          (1): GELU(approximate='none')
          (2): Dropout(p=0.1, inplace=False)
          (3): Linear(in_features=31744, out_features=7936, bias=True)
          (4): Dropout(p=0.1, inplace=False)
        )
      )
    )
    (2): ReshapeToNested()
    (3): MHSA(
      (mab): MAB(
        (fc_q): Linear(in_features=256, out_features=256, bias=True)
        (fc_k): Linear(in_features=256, out_features=256, bias=True)
        (fc_v): Linear(in_features=256, out_features=256, bias=True)
        (fc_mix_heads): Linear(in_features=256, out_features=256, bias=True)
        (fc_res): Linear(in_features=256, out_features=256, bias=True)
        (ln0): LayerNorm((256,), eps=1e-12, elementwise_affine=True)
        (ln1): LayerNorm((256,), eps=1e-12, elementwise_affine=True)
        (hidden_dropout): Dropout(p=0.1, inplace=False)
        (att_scores_dropout): Dropout(p=0.1, inplace=False)
        (rff): Sequential(
          (0): Linear(in_features=256, out_features=1024, bias=True)
          (1): GELU(approximate='none')
          (2): Dropout(p=0.1, inplace=False)
          (3): Linear(in_features=1024, out_features=256, bias=True)
          (4): Dropout(p=0.1, inplace=False)
        )
      )
    )
    (4): ReshapeToFlat()
    (5): MHSA(
      (mab): MAB(
        (fc_q): Linear(in_features=7936, out_features=7936, bias=True)
        (fc_k): Linear(in_features=7936, out_features=7936, bias=True)
        (fc_v): Linear(in_features=7936, out_features=7936, bias=True)
        (fc_mix_heads): Linear(in_features=7936, out_features=7936, bias=True)
        (fc_res): Linear(in_features=7936, out_features=7936, bias=True)
        (ln0): LayerNorm((7936,), eps=1e-12, elementwise_affine=True)
        (ln1): LayerNorm((7936,), eps=1e-12, elementwise_affine=True)
        (hidden_dropout): Dropout(p=0.1, inplace=False)
        (att_scores_dropout): Dropout(p=0.1, inplace=False)
        (rff): Sequential(
          (0): Linear(in_features=7936, out_features=31744, bias=True)
          (1): GELU(approximate='none')
          (2): Dropout(p=0.1, inplace=False)
          (3): Linear(in_features=31744, out_features=7936, bias=True)
          (4): Dropout(p=0.1, inplace=False)
        )
      )
    )
    (6): ReshapeToNested()
    (7): MHSA(
      (mab): MAB(
        (fc_q): Linear(in_features=256, out_features=256, bias=True)
        (fc_k): Linear(in_features=256, out_features=256, bias=True)
        (fc_v): Linear(in_features=256, out_features=256, bias=True)
        (fc_mix_heads): Linear(in_features=256, out_features=256, bias=True)
        (fc_res): Linear(in_features=256, out_features=256, bias=True)
        (ln0): LayerNorm((256,), eps=1e-12, elementwise_affine=True)
        (ln1): LayerNorm((256,), eps=1e-12, elementwise_affine=True)
        (hidden_dropout): Dropout(p=0.1, inplace=False)
        (att_scores_dropout): Dropout(p=0.1, inplace=False)
        (rff): Sequential(
          (0): Linear(in_features=256, out_features=1024, bias=True)
          (1): GELU(approximate='none')
          (2): Dropout(p=0.1, inplace=False)
          (3): Linear(in_features=1024, out_features=256, bias=True)
          (4): Dropout(p=0.1, inplace=False)
        )
      )
    )
    (8): ReshapeToFlat()
    (9): MHSA(
      (mab): MAB(
        (fc_q): Linear(in_features=7936, out_features=7936, bias=True)
        (fc_k): Linear(in_features=7936, out_features=7936, bias=True)
        (fc_v): Linear(in_features=7936, out_features=7936, bias=True)
        (fc_mix_heads): Linear(in_features=7936, out_features=7936, bias=True)
        (fc_res): Linear(in_features=7936, out_features=7936, bias=True)
        (ln0): LayerNorm((7936,), eps=1e-12, elementwise_affine=True)
        (ln1): LayerNorm((7936,), eps=1e-12, elementwise_affine=True)
        (hidden_dropout): Dropout(p=0.1, inplace=False)
        (att_scores_dropout): Dropout(p=0.1, inplace=False)
        (rff): Sequential(
          (0): Linear(in_features=7936, out_features=31744, bias=True)
          (1): GELU(approximate='none')
          (2): Dropout(p=0.1, inplace=False)
          (3): Linear(in_features=31744, out_features=7936, bias=True)
          (4): Dropout(p=0.1, inplace=False)
        )
      )
    )
    (10): ReshapeToNested()
    (11): MHSA(
      (mab): MAB(
        (fc_q): Linear(in_features=256, out_features=256, bias=True)
        (fc_k): Linear(in_features=256, out_features=256, bias=True)
        (fc_v): Linear(in_features=256, out_features=256, bias=True)
        (fc_mix_heads): Linear(in_features=256, out_features=256, bias=True)
        (fc_res): Linear(in_features=256, out_features=256, bias=True)
        (ln0): LayerNorm((256,), eps=1e-12, elementwise_affine=True)
        (ln1): LayerNorm((256,), eps=1e-12, elementwise_affine=True)
        (hidden_dropout): Dropout(p=0.1, inplace=False)
        (att_scores_dropout): Dropout(p=0.1, inplace=False)
        (rff): Sequential(
          (0): Linear(in_features=256, out_features=1024, bias=True)
          (1): GELU(approximate='none')
          (2): Dropout(p=0.1, inplace=False)
          (3): Linear(in_features=1024, out_features=256, bias=True)
          (4): Dropout(p=0.1, inplace=False)
        )
      )
    )
    (12): ReshapeToFlat()
    (13): MHSA(
      (mab): MAB(
        (fc_q): Linear(in_features=7936, out_features=7936, bias=True)
        (fc_k): Linear(in_features=7936, out_features=7936, bias=True)
        (fc_v): Linear(in_features=7936, out_features=7936, bias=True)
        (fc_mix_heads): Linear(in_features=7936, out_features=7936, bias=True)
        (fc_res): Linear(in_features=7936, out_features=7936, bias=True)
        (ln0): LayerNorm((7936,), eps=1e-12, elementwise_affine=True)
        (ln1): LayerNorm((7936,), eps=1e-12, elementwise_affine=True)
        (hidden_dropout): Dropout(p=0.1, inplace=False)
        (att_scores_dropout): Dropout(p=0.1, inplace=False)
        (rff): Sequential(
          (0): Linear(in_features=7936, out_features=31744, bias=True)
          (1): GELU(approximate='none')
          (2): Dropout(p=0.1, inplace=False)
          (3): Linear(in_features=31744, out_features=7936, bias=True)
          (4): Dropout(p=0.1, inplace=False)
        )
      )
    )
    (14): ReshapeToNested()
    (15): MHSA(
      (mab): MAB(
        (fc_q): Linear(in_features=256, out_features=256, bias=True)
        (fc_k): Linear(in_features=256, out_features=256, bias=True)
        (fc_v): Linear(in_features=256, out_features=256, bias=True)
        (fc_mix_heads): Linear(in_features=256, out_features=256, bias=True)
        (fc_res): Linear(in_features=256, out_features=256, bias=True)
        (ln0): LayerNorm((256,), eps=1e-12, elementwise_affine=True)
        (ln1): LayerNorm((256,), eps=1e-12, elementwise_affine=True)
        (hidden_dropout): Dropout(p=0.1, inplace=False)
        (att_scores_dropout): Dropout(p=0.1, inplace=False)
        (rff): Sequential(
          (0): Linear(in_features=256, out_features=1024, bias=True)
          (1): GELU(approximate='none')
          (2): Dropout(p=0.1, inplace=False)
          (3): Linear(in_features=1024, out_features=256, bias=True)
          (4): Dropout(p=0.1, inplace=False)
        )
      )
    )
    (16): ReshapeToFlat()
    (17): MHSA(
      (mab): MAB(
        (fc_q): Linear(in_features=7936, out_features=7936, bias=True)
        (fc_k): Linear(in_features=7936, out_features=7936, bias=True)
        (fc_v): Linear(in_features=7936, out_features=7936, bias=True)
        (fc_mix_heads): Linear(in_features=7936, out_features=7936, bias=True)
        (fc_res): Linear(in_features=7936, out_features=7936, bias=True)
        (ln0): LayerNorm((7936,), eps=1e-12, elementwise_affine=True)
        (ln1): LayerNorm((7936,), eps=1e-12, elementwise_affine=True)
        (hidden_dropout): Dropout(p=0.1, inplace=False)
        (att_scores_dropout): Dropout(p=0.1, inplace=False)
        (rff): Sequential(
          (0): Linear(in_features=7936, out_features=31744, bias=True)
          (1): GELU(approximate='none')
          (2): Dropout(p=0.1, inplace=False)
          (3): Linear(in_features=31744, out_features=7936, bias=True)
          (4): Dropout(p=0.1, inplace=False)
        )
      )
    )
    (18): ReshapeToNested()
    (19): MHSA(
      (mab): MAB(
        (fc_q): Linear(in_features=256, out_features=256, bias=True)
        (fc_k): Linear(in_features=256, out_features=256, bias=True)
        (fc_v): Linear(in_features=256, out_features=256, bias=True)
        (fc_mix_heads): Linear(in_features=256, out_features=256, bias=True)
        (fc_res): Linear(in_features=256, out_features=256, bias=True)
        (ln0): LayerNorm((256,), eps=1e-12, elementwise_affine=True)
        (ln1): LayerNorm((256,), eps=1e-12, elementwise_affine=True)
        (hidden_dropout): Dropout(p=0.1, inplace=False)
        (att_scores_dropout): Dropout(p=0.1, inplace=False)
        (rff): Sequential(
          (0): Linear(in_features=256, out_features=1024, bias=True)
          (1): GELU(approximate='none')
          (2): Dropout(p=0.1, inplace=False)
          (3): Linear(in_features=1024, out_features=256, bias=True)
          (4): Dropout(p=0.1, inplace=False)
        )
      )
    )
    (20): ReshapeToFlat()
    (21): MHSA(
      (mab): MAB(
        (fc_q): Linear(in_features=7936, out_features=7936, bias=True)
        (fc_k): Linear(in_features=7936, out_features=7936, bias=True)
        (fc_v): Linear(in_features=7936, out_features=7936, bias=True)
        (fc_mix_heads): Linear(in_features=7936, out_features=7936, bias=True)
        (fc_res): Linear(in_features=7936, out_features=7936, bias=True)
        (ln0): LayerNorm((7936,), eps=1e-12, elementwise_affine=True)
        (ln1): LayerNorm((7936,), eps=1e-12, elementwise_affine=True)
        (hidden_dropout): Dropout(p=0.1, inplace=False)
        (att_scores_dropout): Dropout(p=0.1, inplace=False)
        (rff): Sequential(
          (0): Linear(in_features=7936, out_features=31744, bias=True)
          (1): GELU(approximate='none')
          (2): Dropout(p=0.1, inplace=False)
          (3): Linear(in_features=31744, out_features=7936, bias=True)
          (4): Dropout(p=0.1, inplace=False)
        )
      )
    )
    (22): ReshapeToNested()
    (23): MHSA(
      (mab): MAB(
        (fc_q): Linear(in_features=256, out_features=256, bias=True)
        (fc_k): Linear(in_features=256, out_features=256, bias=True)
        (fc_v): Linear(in_features=256, out_features=256, bias=True)
        (fc_mix_heads): Linear(in_features=256, out_features=256, bias=True)
        (fc_res): Linear(in_features=256, out_features=256, bias=True)
        (ln0): LayerNorm((256,), eps=1e-12, elementwise_affine=True)
        (ln1): LayerNorm((256,), eps=1e-12, elementwise_affine=True)
        (hidden_dropout): Dropout(p=0.1, inplace=False)
        (att_scores_dropout): Dropout(p=0.1, inplace=False)
        (rff): Sequential(
          (0): Linear(in_features=256, out_features=1024, bias=True)
          (1): GELU(approximate='none')
          (2): Dropout(p=0.1, inplace=False)
          (3): Linear(in_features=1024, out_features=256, bias=True)
          (4): Dropout(p=0.1, inplace=False)
        )
      )
    )
    (24): ReshapeToFlat()
    (25): MHSA(
      (mab): MAB(
        (fc_q): Linear(in_features=7936, out_features=7936, bias=True)
        (fc_k): Linear(in_features=7936, out_features=7936, bias=True)
        (fc_v): Linear(in_features=7936, out_features=7936, bias=True)
        (fc_mix_heads): Linear(in_features=7936, out_features=7936, bias=True)
        (fc_res): Linear(in_features=7936, out_features=7936, bias=True)
        (ln0): LayerNorm((7936,), eps=1e-12, elementwise_affine=True)
        (ln1): LayerNorm((7936,), eps=1e-12, elementwise_affine=True)
        (hidden_dropout): Dropout(p=0.1, inplace=False)
        (att_scores_dropout): Dropout(p=0.1, inplace=False)
        (rff): Sequential(
          (0): Linear(in_features=7936, out_features=31744, bias=True)
          (1): GELU(approximate='none')
          (2): Dropout(p=0.1, inplace=False)
          (3): Linear(in_features=31744, out_features=7936, bias=True)
          (4): Dropout(p=0.1, inplace=False)
        )
      )
    )
    (26): ReshapeToNested()
    (27): MHSA(
      (mab): MAB(
        (fc_q): Linear(in_features=256, out_features=256, bias=True)
        (fc_k): Linear(in_features=256, out_features=256, bias=True)
        (fc_v): Linear(in_features=256, out_features=256, bias=True)
        (fc_mix_heads): Linear(in_features=256, out_features=256, bias=True)
        (fc_res): Linear(in_features=256, out_features=256, bias=True)
        (ln0): LayerNorm((256,), eps=1e-12, elementwise_affine=True)
        (ln1): LayerNorm((256,), eps=1e-12, elementwise_affine=True)
        (hidden_dropout): Dropout(p=0.1, inplace=False)
        (att_scores_dropout): Dropout(p=0.1, inplace=False)
        (rff): Sequential(
          (0): Linear(in_features=256, out_features=1024, bias=True)
          (1): GELU(approximate='none')
          (2): Dropout(p=0.1, inplace=False)
          (3): Linear(in_features=1024, out_features=256, bias=True)
          (4): Dropout(p=0.1, inplace=False)
        )
      )
    )
    (28): ReshapeToFlat()
    (29): MHSA(
      (mab): MAB(
        (fc_q): Linear(in_features=7936, out_features=7936, bias=True)
        (fc_k): Linear(in_features=7936, out_features=7936, bias=True)
        (fc_v): Linear(in_features=7936, out_features=7936, bias=True)
        (fc_mix_heads): Linear(in_features=7936, out_features=7936, bias=True)
        (fc_res): Linear(in_features=7936, out_features=7936, bias=True)
        (ln0): LayerNorm((7936,), eps=1e-12, elementwise_affine=True)
        (ln1): LayerNorm((7936,), eps=1e-12, elementwise_affine=True)
        (hidden_dropout): Dropout(p=0.1, inplace=False)
        (att_scores_dropout): Dropout(p=0.1, inplace=False)
        (rff): Sequential(
          (0): Linear(in_features=7936, out_features=31744, bias=True)
          (1): GELU(approximate='none')
          (2): Dropout(p=0.1, inplace=False)
          (3): Linear(in_features=31744, out_features=7936, bias=True)
          (4): Dropout(p=0.1, inplace=False)
        )
      )
    )
    (30): ReshapeToNested()
    (31): MHSA(
      (mab): MAB(
        (fc_q): Linear(in_features=256, out_features=256, bias=True)
        (fc_k): Linear(in_features=256, out_features=256, bias=True)
        (fc_v): Linear(in_features=256, out_features=256, bias=True)
        (fc_mix_heads): Linear(in_features=256, out_features=256, bias=True)
        (fc_res): Linear(in_features=256, out_features=256, bias=True)
        (ln0): LayerNorm((256,), eps=1e-12, elementwise_affine=True)
        (ln1): LayerNorm((256,), eps=1e-12, elementwise_affine=True)
        (hidden_dropout): Dropout(p=0.1, inplace=False)
        (att_scores_dropout): Dropout(p=0.1, inplace=False)
        (rff): Sequential(
          (0): Linear(in_features=256, out_features=1024, bias=True)
          (1): GELU(approximate='none')
          (2): Dropout(p=0.1, inplace=False)
          (3): Linear(in_features=1024, out_features=256, bias=True)
          (4): Dropout(p=0.1, inplace=False)
        )
      )
    )
    (32): ReshapeToFlat()
    (33): ReshapeToNested()
  )
  (embedding_dropout): Dropout(p=0.1, inplace=False)
  (in_embedding): ModuleList(
    (0): Linear(in_features=3, out_features=256, bias=True)
    (1-30): 30 x Linear(in_features=2, out_features=256, bias=True)
  )
  (feature_type_embedding): Embedding(2, 256)
  (feature_index_embedding): Embedding(31, 256)
  (out_embedding): ModuleList(
    (0): Linear(in_features=256, out_features=2, bias=True)
    (1-30): 30 x Linear(in_features=256, out_features=1, bias=True)
  )
)
Warming up for 70000.0/100000.0 steps.
Initialized "flat_and_anneal" learning rate scheduler.
Initialized "cosine" augmentation/label tradeoff annealer. Annealing to minimum value in 100000 steps.
Using AUROC in loss module.
/Users/devu/anaconda3/envs/npt/lib/python3.8/site-package
…
