…
  warnings.warn("Detected call of `lr_scheduler.step()` before `optimizer.step()`. "
/Users/devu/PycharmProjects/non-parametric-transformers/npt/mask.py:108: UserWarning: torch.sparse.SparseTensor(indices, values, shape, *, device=) is deprecated.  Please use torch.sparse_coo_tensor(indices, values, shape, dtype=, device=). (Triggered internally at /Users/runner/work/_temp/anaconda/conda-bld/pytorch_1711403207619/work/torch/csrc/utils/tensor_new.cpp:620.)
  mask = torch.sparse.FloatTensor(
Initialized "lookahead_lamb" optimizer.
NPTModel(
  (enc): Sequential(
    (0): ReshapeToFlat()
    (1): MHSA(
      (mab): MAB(
        (fc_q): Linear(in_features=1984, out_features=1984, bias=True)
        (fc_k): Linear(in_features=1984, out_features=1984, bias=True)
        (fc_v): Linear(in_features=1984, out_features=1984, bias=True)
        (fc_mix_heads): Linear(in_features=1984, out_features=1984, bias=True)
        (fc_res): Linear(in_features=1984, out_features=1984, bias=True)
        (ln0): LayerNorm((1984,), eps=1e-12, elementwise_affine=True)
        (ln1): LayerNorm((1984,), eps=1e-12, elementwise_affine=True)
        (hidden_dropout): Dropout(p=0.1, inplace=False)
        (att_scores_dropout): Dropout(p=0.1, inplace=False)
        (rff): Sequential(
          (0): Linear(in_features=1984, out_features=7936, bias=True)
          (1): GELU(approximate='none')
          (2): Dropout(p=0.1, inplace=False)
          (3): Linear(in_features=7936, out_features=1984, bias=True)
          (4): Dropout(p=0.1, inplace=False)
        )
      )
    )
    (2): ReshapeToNested()
    (3): MHSA(
      (mab): MAB(
        (fc_q): Linear(in_features=64, out_features=64, bias=True)
        (fc_k): Linear(in_features=64, out_features=64, bias=True)
        (fc_v): Linear(in_features=64, out_features=64, bias=True)
        (fc_mix_heads): Linear(in_features=64, out_features=64, bias=True)
        (fc_res): Linear(in_features=64, out_features=64, bias=True)
        (ln0): LayerNorm((64,), eps=1e-12, elementwise_affine=True)
        (ln1): LayerNorm((64,), eps=1e-12, elementwise_affine=True)
        (hidden_dropout): Dropout(p=0.1, inplace=False)
        (att_scores_dropout): Dropout(p=0.1, inplace=False)
        (rff): Sequential(
          (0): Linear(in_features=64, out_features=256, bias=True)
          (1): GELU(approximate='none')
          (2): Dropout(p=0.1, inplace=False)
          (3): Linear(in_features=256, out_features=64, bias=True)
          (4): Dropout(p=0.1, inplace=False)
        )
      )
    )
    (4): ReshapeToFlat()
    (5): MHSA(
      (mab): MAB(
        (fc_q): Linear(in_features=1984, out_features=1984, bias=True)
        (fc_k): Linear(in_features=1984, out_features=1984, bias=True)
        (fc_v): Linear(in_features=1984, out_features=1984, bias=True)
        (fc_mix_heads): Linear(in_features=1984, out_features=1984, bias=True)
        (fc_res): Linear(in_features=1984, out_features=1984, bias=True)
        (ln0): LayerNorm((1984,), eps=1e-12, elementwise_affine=True)
        (ln1): LayerNorm((1984,), eps=1e-12, elementwise_affine=True)
        (hidden_dropout): Dropout(p=0.1, inplace=False)
        (att_scores_dropout): Dropout(p=0.1, inplace=False)
        (rff): Sequential(
          (0): Linear(in_features=1984, out_features=7936, bias=True)
          (1): GELU(approximate='none')
          (2): Dropout(p=0.1, inplace=False)
          (3): Linear(in_features=7936, out_features=1984, bias=True)
          (4): Dropout(p=0.1, inplace=False)
        )
      )
    )
    (6): ReshapeToNested()
    (7): MHSA(
      (mab): MAB(
        (fc_q): Linear(in_features=64, out_features=64, bias=True)
        (fc_k): Linear(in_features=64, out_features=64, bias=True)
        (fc_v): Linear(in_features=64, out_features=64, bias=True)
        (fc_mix_heads): Linear(in_features=64, out_features=64, bias=True)
        (fc_res): Linear(in_features=64, out_features=64, bias=True)
        (ln0): LayerNorm((64,), eps=1e-12, elementwise_affine=True)
        (ln1): LayerNorm((64,), eps=1e-12, elementwise_affine=True)
        (hidden_dropout): Dropout(p=0.1, inplace=False)
        (att_scores_dropout): Dropout(p=0.1, inplace=False)
        (rff): Sequential(
          (0): Linear(in_features=64, out_features=256, bias=True)
          (1): GELU(approximate='none')
          (2): Dropout(p=0.1, inplace=False)
          (3): Linear(in_features=256, out_features=64, bias=True)
          (4): Dropout(p=0.1, inplace=False)
        )
      )
    )
    (8): ReshapeToFlat()
    (9): MHSA(
      (mab): MAB(
        (fc_q): Linear(in_features=1984, out_features=1984, bias=True)
        (fc_k): Linear(in_features=1984, out_features=1984, bias=True)
        (fc_v): Linear(in_features=1984, out_features=1984, bias=True)
        (fc_mix_heads): Linear(in_features=1984, out_features=1984, bias=True)
        (fc_res): Linear(in_features=1984, out_features=1984, bias=True)
        (ln0): LayerNorm((1984,), eps=1e-12, elementwise_affine=True)
        (ln1): LayerNorm((1984,), eps=1e-12, elementwise_affine=True)
        (hidden_dropout): Dropout(p=0.1, inplace=False)
        (att_scores_dropout): Dropout(p=0.1, inplace=False)
        (rff): Sequential(
          (0): Linear(in_features=1984, out_features=7936, bias=True)
          (1): GELU(approximate='none')
          (2): Dropout(p=0.1, inplace=False)
          (3): Linear(in_features=7936, out_features=1984, bias=True)
          (4): Dropout(p=0.1, inplace=False)
        )
      )
    )
    (10): ReshapeToNested()
    (11): MHSA(
      (mab): MAB(
        (fc_q): Linear(in_features=64, out_features=64, bias=True)
        (fc_k): Linear(in_features=64, out_features=64, bias=True)
        (fc_v): Linear(in_features=64, out_features=64, bias=True)
        (fc_mix_heads): Linear(in_features=64, out_features=64, bias=True)
        (fc_res): Linear(in_features=64, out_features=64, bias=True)
        (ln0): LayerNorm((64,), eps=1e-12, elementwise_affine=True)
        (ln1): LayerNorm((64,), eps=1e-12, elementwise_affine=True)
        (hidden_dropout): Dropout(p=0.1, inplace=False)
        (att_scores_dropout): Dropout(p=0.1, inplace=False)
        (rff): Sequential(
          (0): Linear(in_features=64, out_features=256, bias=True)
          (1): GELU(approximate='none')
          (2): Dropout(p=0.1, inplace=False)
          (3): Linear(in_features=256, out_features=64, bias=True)
          (4): Dropout(p=0.1, inplace=False)
        )
      )
    )
    (12): ReshapeToFlat()
    (13): MHSA(
      (mab): MAB(
        (fc_q): Linear(in_features=1984, out_features=1984, bias=True)
        (fc_k): Linear(in_features=1984, out_features=1984, bias=True)
        (fc_v): Linear(in_features=1984, out_features=1984, bias=True)
        (fc_mix_heads): Linear(in_features=1984, out_features=1984, bias=True)
        (fc_res): Linear(in_features=1984, out_features=1984, bias=True)
        (ln0): LayerNorm((1984,), eps=1e-12, elementwise_affine=True)
        (ln1): LayerNorm((1984,), eps=1e-12, elementwise_affine=True)
        (hidden_dropout): Dropout(p=0.1, inplace=False)
        (att_scores_dropout): Dropout(p=0.1, inplace=False)
        (rff): Sequential(
          (0): Linear(in_features=1984, out_features=7936, bias=True)
          (1): GELU(approximate='none')
          (2): Dropout(p=0.1, inplace=False)
          (3): Linear(in_features=7936, out_features=1984, bias=True)
          (4): Dropout(p=0.1, inplace=False)
        )
      )
    )
    (14): ReshapeToNested()
    (15): MHSA(
      (mab): MAB(
        (fc_q): Linear(in_features=64, out_features=64, bias=True)
        (fc_k): Linear(in_features=64, out_features=64, bias=True)
        (fc_v): Linear(in_features=64, out_features=64, bias=True)
        (fc_mix_heads): Linear(in_features=64, out_features=64, bias=True)
        (fc_res): Linear(in_features=64, out_features=64, bias=True)
        (ln0): LayerNorm((64,), eps=1e-12, elementwise_affine=True)
        (ln1): LayerNorm((64,), eps=1e-12, elementwise_affine=True)
        (hidden_dropout): Dropout(p=0.1, inplace=False)
        (att_scores_dropout): Dropout(p=0.1, inplace=False)
        (rff): Sequential(
          (0): Linear(in_features=64, out_features=256, bias=True)
          (1): GELU(approximate='none')
          (2): Dropout(p=0.1, inplace=False)
          (3): Linear(in_features=256, out_features=64, bias=True)
          (4): Dropout(p=0.1, inplace=False)
        )
      )
    )
    (16): ReshapeToFlat()
    (17): ReshapeToNested()
  )
  (embedding_dropout): Dropout(p=0.1, inplace=False)
  (in_embedding): ModuleList(
    (0): Linear(in_features=3, out_features=64, bias=True)
    (1-30): 30 x Linear(in_features=2, out_features=64, bias=True)
  )
  (feature_type_embedding): Embedding(2, 64)
  (feature_index_embedding): Embedding(31, 64)
  (out_embedding): ModuleList(
    (0): Linear(in_features=64, out_features=2, bias=True)
    (1-30): 30 x Linear(in_features=64, out_features=1, bias=True)
  )
)
Warming up for 70000.0/100000.0 steps.
Initialized "flat_and_anneal" learning rate scheduler.
Initialized "cosine" augmentation/label tradeoff annealer. Annealing to minimum value in 100000 steps.
Using AUROC in loss module.
Validation loss has improved 1 times since last caching the model. Caching now.
…
